model_cu32/hevc_model_cu32.pt (torch_old, 635924 bytes, 22 tensors)

conv1.0.weight f4 [16, 3, 5, 5]
-0.0012574818 0.0064129625 -0.049899396 -0.028638147 0.06893041 0.09789892 0.025020033 0.11182627
0.010019447 0.09627283 0.10621931 -0.03828393 -0.06736097 -0.06766645 0.012603719 -0.0069554676
-0.11636689 0.04652507 0.049761407 -0.05522583 0.17705417 0.14355917 -0.08937295 -0.07044384
0.022503743 -0.11982912 0.07241439 0.01812366 -0.010712004 -0.09044829 0.14036879 0.032416217
0.0636081 0.014536993 -0.047325175 -0.077347785 0.006067356 0.026642367 0.0023332753 -0.0024965515
0.009433362 -0.05936288 -0.03645187 0.036021844 -0.16475354 0.15868188 -0.04500736 -0.10963408
-0.06149099 -0.09552448 0.09526294 -0.04020364 0.1271724 -0.111342914 -0.1164029 0.06777304
0.031702295 -0.030435283 -0.044217 -0.1500827 -0.0070889182 0.09780633 -0.029082293 -0.095640674
-0.0543949 -0.011094939 -0.15406471 -0.16118065 -0.16792768 -0.27366012 -0.17826147 -0.16606657
-0.13713305 -0.3213021 -0.388562 -0.0588702 -0.0762456 0.008103627 -0.05860418 0.11526382
-0.010192395 -0.011364932 -0.07431396 0.086354494 0.003112431 -0.13791348 -0.07356467 -0.094645254
0.06489518 -0.15922037 0.0049134535 0.105213016 -0.049142227 0.0872605 0.062679015 0.0006561578
0.13287802 -0.0022783699 0.03299058 0.042049438 -0.10484747 -0.17658445 -0.032013867 0.030782735
0.06762024 0.077926725 -0.12978998 0.108476005 -0.020785864 -0.067730814 0.093802 -0.086671524
0.042964227 -0.029790832 0.033543754 0.05119928 0.08396348 0.04452225 -0.08416561 -0.026015198
-0.07097631 0.27941418 0.03681369 -0.065814026 -0.015771437 0.08361982 -0.08490388 -0.050420605
-0.07196819 -0.015664924 -0.03202913 -0.17236593 -0.08749374 0.15664503 -0.03468586 0.05668493
0.049935184 0.010881072 -0.03431303 0.037232272 0.012527461 -0.057542488 0.11740638 0.043723535
-0.021533828 0.027839733 0.21837512 0.066062786 -0.075881936 -0.015394899 -0.066551276 0.045435004
0.11424266 0.0509558 0.0021267345 0.12782204 0.044575054 -0.016629305 -0.09552882 -0.024265
-0.023919508 -0.07189212 -0.05196021 -0.06627736 0.16473798 -0.12817572 0.12852566 0.02870861
-0.09166454 0.05643393 -0.0023241134 0.17009853 0.010185854 -0.07024901 -0.08965469 -0.036745694
0.14772582 -0.036366332 0.05844397 -0.008333375 -0.020101096 -0.098209165 0.05733977 0.033119157
0.089039214 -0.02966863 -0.106045745 -0.057443857 0.008648791 0.08329732 0.027137285 0.023293698
0.0051822066 0.050381463 0.12950853 0.07030834 0.00027320703 -0.1026107 -0.05946325 -0.024439506
-0.100856915 0.036868554 0.23133357 -0.10435723 0.049061548 0.09008746 0.028296925 -0.07972682
-0.119989306 0.041011814 0.058288515 -0.034515336 0.0015735279 -0.11873064 0.025136314 0.02355062
-0.00011406767 0.0218509 0.061211854 0.025908027 0.02427478 0.15697376 0.099576324 -0.039163932
-0.07975495 0.018063778 -0.045031648 0.024027623 -0.039045095 -0.042518817 0.023360388 0.07394286
0.037765175 -0.015048829 0.15873632 0.124576256 -0.06261233 -0.014510555 -0.0015453371 -0.036337677
0.014383599 0.13528694 -0.04153959 0.017848022 -0.08013707 -0.11387957 -0.075675815 -0.07406082
-0.04002346 0.021102803 0.010877378 -0.13839151 0.01592698 0.049571436 0.014913195 0.00038382708
00000000: 16d2 a4ba d423 d23b 4f63 4cbd 8c9a eabc
00000010: 632b 8d3d 3b7f c83d d0f6 cc3c 2c05 e53d
00000020: 9b28 243c b12a c53d 8289 d93d 9ccf 1cbd
00000030: 8cf4 89bd b594 8abd d47f 4e3c b1ea e3bb
00000040: c451 eebd 1291 3e3d 9ed2 4b3d 7b34 62bd
00000050: b04d 353e 2d01 133e 2a09 b7bd dc44 90bd
00000060: c559 b83c f868 f5bd ff4d 943d 1278 943c
00000070: 6781 2fbc f43c b9bd d6bc 0f3e dec6 043d
00000080: f744 823d 912c 6e3c 0bd8 41bd 8468 9ebd
00000090: acd0 c63b 1841 da3c dde9 183b 2f9d 23bb
000000a0: 638e 1a3c 7e26 73bd 8e4e 15bd a48b 133d
000000b0: 27b5 28be 817d 223e a359 38bd d587 e0bd
000000c0: fadd 7bbd 57a2 c3bd 3719 c33d 92ac 24bd
000000d0: 7b39 023e c107 e4bd a564 eebd 97cc 8a3d
000000e0: 44da 013d 6a53 f9bc e31c 35bd 48af 19be
000000f0: 284a e8bb af4e c83d fd3d eebc 42df c3bd
00000100: 30cd 5ebd 8cc7 35bc 24c3 1dbe 8a0c 25be
00000110: 3cf5 2bbe 2e1d 8cbe 2d8a 36be 5b0d 2abe
00000120: 9b6c 0cbe b581 a4be 99f1 c6be e121 71bd
00000130: a726 9cbd 13c5 043c f00a 70bd 700f ec3d
00000140: 01fe 26bc fb33 3abc eb31 98bd a0da b03d
00000150: edf9 4b3b 3139 0dbe 13a9 96bd 5fd5 c1bd
00000160: c4e7 843d aa0a 23be 0901 a13b ec79 d73d
00000170: 5c49 49bd a2b5 b23d db5d 803d 0102 2c3a
00000180: 2d11 083e b450 15bb 2121 073d 083c 2c3d
00000190: 45ba d6bd 8ed2 34be f920 03bd 132c fc3c
000001a0: 7b7c 8a3d 0c98 9f3d aae7 04be ab28 de3d
000001b0: 1e47 aabc 74b6 8abd 431b c03d d780 b1bd
000001c0: 42fb 2f3d e70b f4bc 2d65 093d 56b6 513d
000001d0: 0cf5 ab3d f65c 363d 055f acbd d31d d5bc
000001e0: 075c 91bd 600f 8f3e f4c9 163d 81c9 86bd
000001f0: 1a33 81bc de40 ab3d 16e2 adbd d685 4ebd
00000200: 0f64 93bd ba53 80bc fa30 03bd b280 30be
00000210: eb2f b3bd 8e67 203e c312 0ebd 752e 683d
00000220: d688 4c3d 8646 323c d28b 0cbd de80 183d
00000230: fb3f 4d3c acb1 6bbd c272 f03d 7317 333d
00000240: b667 b0bc 2710 e43c ba9d 5f3e ed4b 873d
00000250: fd67 9bbd e33a 7cbc 094c 88bd 0e1a 3a3d
00000260: 0ef8 e93d 07b7 503d af60 0b3b c8e3 023e
00000270: 5594 363d 2e3a 88bc 9da4 c3bd 65c7 c6bc
00000280: d8f2 c3bc 2d3c 93bd 3bd4 54bd 6dbc 87bd
00000290: 13b1 283e 7f40 03be 3b9c 033e 522e eb3c
000002a0: 9eba bbbd 4427 673d 2750 18bb 4f2e 2e3e
000002b0: 91e2 263c b7de 8fbd e19c b7bd a782 16bd
000002c0: 7045 173e ddf4 14bd f262 6f3d b588 08bc
000002d0: 0eab a4bc e321 c9bd 1bdd 6a3d f4a7 073d
000002e0: 315a b63d a00b f3bc 832e d9bd 404a 6bbd
000002f0: a9b3 0d3c c997 aa3d 034f de3c 6dd2 be3c
00000300: 80cf a93b cb5c 4e3d e29d 043e d2fd 8f3d
00000310: 3a3d 8f39 8f25 d2bd bd8f 73bd 5c35 c8bc
00000320: 128e cebd 7b03 173d b5e2 6c3e 3eb9 d5bd
00000330: c3f4 483d c67f b83d f4ce e73c d147 a3bd
00000340: f4bc f5bd 01fc 273d f0bf 6e3d f45f 0dbd
00000350: d63e ce3a 0d29 f3bd acea cd3c 3bed c03c
00000360: 9d37 efb8 a900 b33c 48b9 7a3d 123d d43c
00000370: e7db c63c bbbd 203e acee cb3d 5c6a 20bd
00000380: 9056 a3bd 7dfa 933c 1b73 38bd 94d5 c43c
00000390: c0ed 1fbd 3628 2ebd 495e bf3c 5b6f 973d
000003a0: a8af 1a3d 5d8f 76bc c68b 223e d621 ff3d
000003b0: e53a 80bd aebd 6dbc e98c caba d1d6 14bd
000003c0: 30a9 6b3c a988 0a3e 6b25 2abd 0436 923c
000003d0: e71e a4bd b139 e9bd ecfb 9abd 33ad 97bd
000003e0: a4ef 23bd c9df ac3c 0837 323c 81b6 0dbe
000003f0: 4c79 823c 6b0b 4b3d 7956 743c 663c c939

conv1.0.bias f4 [16]
0.0034368215 0.046016503 0.08044573 -0.06625802 0.015718354 -0.021361278 -0.005984338 -0.1524171
-0.08230905 -0.08641561 -0.0042816233 -0.09461791 -0.016028414 0.09818825 -0.064152405 -0.035349526
00000000: 4c3c 613b cd7b 3c3d bbc0 a43d 49b2 87bd
00000010: c7c3 803c d9fd aebc 4418 c4bb 3a13 1cbe
00000020: a691 a8bd abfa b0bd dc4c 8cbb 09c7 c1bd
00000030: 054e 83bc ec16 c93d 5662 83bd aaca 10bd

conv1.1.weight f4 [16]
1.0931895 0.95353216 0.8093634 1.1507809 0.85459703 1.0239562 1.2358824 0.9420711
0.837378 1.0819776 1.1861111 0.870965 0.8741717 1.0426377 0.95267785 0.859845
00000000: a2ed 8b3f af1a 743f 7132 4f3f ca4c 933f
00000010: dfc6 5a3f ff10 833f 6531 9e3f 922b 713f
00000020: 685e 563f 3e7e 8a3f 7dd2 973f 90f7 5e3f
00000030: b7c9 5f3f 2775 853f b2e2 733f cd1e 5c3f

conv1.1.bias f4 [16]
-0.17331275 0.033359367 -0.11438969 -0.022350963 -0.12766041 -0.19253847 0.20243147 0.005850384
0.08364433 0.082828194 -0.0585436 -0.11215568 -0.13435075 0.027737262 -0.076014124 -0.2746574
00000000: e678 31be d5a3 083d 2445 eabd 5e19 b7bc
00000010: 69b9 02be ce28 45be 324a 4f3e 94b4 bf3b
00000020: b84d ab3d d4a1 a93d 6acb 6fbd e1b1 e5bd
00000030: 3e93 09be 4139 e33c 4bad 9bbd e59f 8cbe

conv1.1.running_mean f4 [16]
-0.5191442 0.061468113 0.25244156 -0.081077546 0.22060588 -0.28405747 -0.024609556 -0.01393321
0.505323 -0.084559664 -0.0089096995 -0.043979764 0.5941831 0.08993476 0.00087913027 0.052795302
00000000: a2e6 04bf fdc5 7b3d 0540 813e fc0b a6bd
00000010: 82e6 613e fb6f 91be fb99 c9bc 1e48 64bc
00000020: d95c 013f 9e2d adbd fdf9 11bc 2024 34bd
00000030: 621c 183f b72f b83d 6f75 663a e33f 583d

conv1.1.running_var f4 [16]
0.2668611 0.01521696 0.02045278 0.012652818 0.06365675 0.051953007 0.0039633117 0.024376752
0.18504399 0.021091213 0.0071800468 0.006500729 0.2048473 0.020264424 0.0037907779 0.013320652
00000000: 05a2 883e 8e50 793c 978c a73c c44d 4f3c
00000010: 785e 823d adcc 543d abde 813b c1b1 c73c
00000020: 2c7c 3d3e 7bc7 ac3c 9946 eb3b 1104 d53b
00000030: 7ec3 513e 9401 a63c b36e 783b dd3e 5a3c

conv2.0.weight f4 [32, 16, 3, 3]
0.026468627 0.084446646 -0.034457453 0.009736968 0.0350755 -0.062262606 0.06661988 -0.035326526
-0.01921891 0.024366466 -0.1571855 -0.10608398 -0.027704 0.04654546 0.0024605927 -0.042421103
-0.023943808 0.0059495387 0.013336593 0.02779698 0.042238057 -0.0369622 -0.010112269 0.012321452
0.029485198 0.007992546 0.041747585 0.06870946 -0.12169356 -0.2069356 0.13292134 -0.11511942
-0.20752466 0.057626978 -0.055288307 0.002454529 -0.10837412 -0.012192238 0.039372914 -0.05216005
-0.074015096 -0.05826584 0.008594129 -0.047228858 -0.13472418 0.13062035 0.07543169 0.050134864
0.117002875 -0.08331562 -0.17680477 -0.059806507 0.014459238 -0.10226304 -0.064312 -0.06446922
-0.101719126 -0.02865373 -0.22101565 -0.07545948 0.016103763 -0.07822063 0.14512281 -0.11097049
-0.16440512 -0.11273066 -0.05971843 0.028811242 -0.14821182 -0.010489798 0.0068767196 0.01792784
-0.10805183 -0.09220132 0.04016221 0.044341154 -0.0019684003 -0.17283103 -0.058436956 -0.13124679
-0.040125087 -0.06626502 -0.09777487 -0.19467008 0.087936684 0.089127734 -0.009821949 0.019676182
-0.17740671 -0.04194292 -0.037677992 -0.19558609 -0.19548906 -0.01766859 -0.08013549 -0.05805153
-0.10287227 -0.06830796 -0.20433076 -0.089863814 0.13211997 -0.11367105 -0.15579632 -0.11739254
0.13139868 0.034063805 0.0008900301 0.06690544 -0.05421395 -0.031238439 -0.14943402 -0.16392128
-0.036676742 -0.03504672 -0.08642331 -0.028859477 0.01997609 0.03541565 -0.13020617 -0.014967973
0.060510527 -0.04092355 -0.039671227 0.18936127 -0.027979208 -0.06182414 0.054504838 0.08955389
-0.09376458 -0.0038791 -0.015304882 -0.01766049 0.045352288 0.028931826 -0.08088775 0.15511748
-0.028182672 -0.041030403 -0.026395766 0.09187453 0.11711826 0.13652694 0.12873024 0.027905809
0.04147757 0.020523906 0.06761088 -0.17331125 -0.03646576 0.14763084 0.10907194 0.06381391
-0.063283235 -0.064138904 0.1563531 -0.05125755 0.051727775 0.02428865 -0.08457121 0.1707221
-0.08149829 0.030452907 -0.15137018 0.17061988 -0.0032410452 0.23146333 0.07866867 -0.11369521
0.09456598 -0.015859008 0.05287328 0.0406937 -0.2123668 -0.08586224 0.10364649 0.08639169
-0.05156788 0.048531234 0.22581124 0.15249519 0.02705628 -0.054519635 -0.064390436 0.0837007
-0.055751476 -0.048440803 -0.17393304 0.06274807 -0.14186691 -0.08907736 -0.1472906 -0.15379255
-0.06775582 0.12914322 0.051877663 -0.049488984 -0.016136846 -0.00063573 -0.010494034 0.038649466
-0.019253595 -0.07819433 -0.014049186 0.08108193 0.06697082 0.01661844 -0.07871351 -0.0526542
0.007025167 -0.001405305 -0.006536313 -0.054258328 -0.026074713 -0.104911126 -0.022454478 0.040055778
0.072414815 -0.00065524166 0.21266569 -0.10191568 -0.0144693535 -0.07145477 -0.042683113 -0.081888996
-0.14085557 -0.09562498 -0.09169156 0.13871695 -0.24850848 0.0011824855 0.07314911 0.0807665
0.0054881615 -0.24016033 0.062145714 -0.09430426 0.25790069 0.294541 0.08873467 -0.2029693
-0.128647 0.06986069 -0.02944016 -0.119683325 0.07071009 -0.054584544 0.09870195 -0.16170427
0.19469376 0.09139614 -0.06585613 0.040455412 -0.09476782 0.034775436 0.014038181 0.092023045
00000000: bcd4 d83c 5df2 ac3d 4223 0dbd ce87 1f3c
00000010: 54ab 0f3d 1307 7fbd 0170 883d 8cb2 10bd
00000020: fa70 9dbc 2f9c c73c 3cf5 20be 8f42 d9bd
00000030: 80f3 e2bc 74a6 3e3d e541 213b c0c1 2dbd
00000040: ce25 c4bc 59f4 c23b ba81 5a3c 7eb6 e33c
00000050: d001 2d3d ad65 17bd eead 25bc eadf 493c
00000060: f18a f13c 2bf3 023c 84ff 2a3d 8cb7 8c3d
00000070: 793a f9bd ede6 53be 881c 083e bbc3 ebbd
00000080: 5881 54be 440a 6c3d fe75 62bd 2adc 203b
00000090: 40f3 ddbd f4c1 47bc 7e45 213d c7a5 55bd
000000a0: 3a95 97bd 29a8 6ebd 64ce 0c3c 0c73 41bd
000000b0: 23f5 09be 57c1 053e ee7b 9a3d 375a 4d3d
000000c0: 349f ef3d 61a1 aabd 4f0c 35be abf7 74bd
000000d0: 71e6 6c3c 496f d1bd 03b6 83bd 7008 84bd
000000e0: 1e52 d0bd 3abb eabc ed51 62be 808a 9abd
000000f0: 0aec 833c 2332 a0bd 139b 143e 7f44 e3bd
00000100: d159 28be 55df e6bd 509b 74bd 8e05 ec3c
00000110: d7c4 17be 67dd 2bbc 1b56 e13b 68dd 923c
00000120: 474a ddbd 0cd4 bcbd 2181 243d 129f 353d
00000130: 4700 01bb 9efa 30be 975b 6fbd 8f65 06be
00000140: 345a 24bd f4b5 87bd 313e c8bd 9857 47be
00000150: 2618 b43d 9a88 b63d 3dec 20bc f22f a13c
00000160: 1baa 35be 57cc 2bbd 3d54 1abd b847 48be
00000170: 492e 48be b8bd 90bc 131e a4bd 71c7 6dbd
00000180: b2ae d2bd 0be5 8bbd 153c 51be 850a b8bd
00000190: 754a 073e 5ecc e8bd 1289 1fbe 806b f0bd
000001a0: 608d 063e 7d86 0b3d e950 693a b805 893d
000001b0: 720f 5ebd c1e7 ffbc 3b05 19be fbda 27be
000001c0: 5a3a 16bd 268d 0fbd b4fe b0bd b66a ecbc
000001d0: e6a4 a33c 0010 113d c454 05be 3b3c 75bc
000001e0: e3d9 773d 749f 27bd 4c7e 22bd ece7 413e
000001f0: a734 e5bc 4f3b 7dbd 7740 5f3d 0868 b73d
00000200: a507 c0bd 8038 7ebb 54c1 7abc bbac 90bc
00000210: 52c3 393d 7002 ed3c 7aa8 a5bd 1ed7 1e3e
00000220: 59df e6bc 7f0f 28bd ef3b d8bc b728 bc3d
00000230: b3db ef3d b8cd 0b3e dcd1 033e b99a e43c
00000240: 62e4 293d c021 a83c 9377 8a3d 8178 31be
00000250: 1f5d 15bd 8a2c 173e 1c61 df3d deb0 823d
00000260: a49a 81bd 425b 83bd 071b 203e 70f3 51bd
00000270: 81e0 533d fef8 c63c ac33 adbd c6d1 2e3e
00000280: 93e8 a6bd 6078 f93c c900 1bbe fab6 2e3e
00000290: b767 54bb b904 6d3e 0a1d a13d 09d9 e8bd
000002a0: cfab c13d c0ea 81bc a791 583d 70ae 263d
000002b0: af76 59be 8bd8 afbd 9c44 d43d 20ee b03d
000002c0: d738 53bd b0c8 463d 103b 673e b327 1c3e
000002d0: 22a5 dd3c fb4f 5fbd 22df 83bd 466b ab3d
000002e0: a95b 64bd dd69 46bd 811b 32be 0f82 803d
000002f0: 8f45 11be 316e b6bd 59d3 16be cb7b 1dbe
00000300: 90c3 8abd 1f3e 043e ac7d 543d f6b4 4abd
00000310: 6b31 84bc 1ea7 26ba 2bef 2bbc e74e 1e3d
00000320: b7b9 9dbc 5924 a0bd 8f2e 66bc 480e a63d
00000330: ff27 893d 6523 883c 8c34 a1bd eeab 57bd
00000340: 5f33 e63b 3632 b8ba 912e d6bb fb3d 5ebd
00000350: a39a d5bc a5db d6bd 74f2 b7bc 8711 243d
00000360: 384e 943d 86c4 2bba 09c5 593e 2bb9 d0bd
00000370: de10 6dbc e156 92bd 7dd4 2ebd 6bb5 a7bd
00000380: 713c 10be 08d7 c3bd c9c8 bbbd d10b 0e3e
00000390: 0279 7ebe a1fd 9a3a 33cf 953d e868 a53d
000003a0: 09d6 b33b 97ec 75be 818c 7e3d 9822 c1bd
000003b0: 8f0b 843e 14ce 963e 86ba b53d 2fd7 4fbe
000003c0: 0abc 03be 1f13 8f3d 7e2c f1bc 881c f5bd
000003d0: 74d0 903d 0b94 5fbd 3f24 ca3d ce95 25be
000003e0: cd5d 473e e62d bb3d 94df 86bd 93b4 253d
000003f0: a115 c2bd b070 0e3d 6600 663c 9476 bc3d

conv2.0.bias f4 [32]
0.012407148 -0.06658008 -0.012660001 -0.03089328 0.07792444 -0.020143088 -0.019485192 -0.013051999
0.0058671045 -0.008082089 0.055737074 0.032569304 0.004152637 0.02938561 -0.029514942 0.002029846
-0.056308284 0.057199053 -0.033187967 -0.014250326 0.028817594 -0.022156179 0.06787308 -0.0036859512
0.018851655 0.08466343 -0.032605153 -0.02553619 -6.554927e-05 0.05403266 0.027814493 -0.02604583
00000000: 5a47 4b3c 235b 88bd e56b 4fbc e713 fdbc
00000010: d996 9f3d 1e03 a5bc 699f 9fbc 0dd8 55bc
00000020: d740 c03b bd6a 04bc 8f4c 643d 6467 053d
00000030: d812 883b 17ba f03c 52c9 f1bc 2a07 053b
00000040: 84a3 66bd 8e49 6a3d 1bf0 07bd 337a 69bc
00000050: e012 ec3c e080 b5bc 0b01 8b3d 0090 71bb
00000060: c96e 9a3c 0564 ad3d fb8c 05bd 4631 d1bc
00000070: 7f77 89b8 5a51 5d3d 38db e33c 115e d5bc

conv2.1.weight f4 [32]
1.048862 1.0003098 1.0091215 0.9361054 1.0179653 1.0015944 1.0359759 1.0480508
1.0460306 0.99488014 0.8862882 1.0130094 1.0085566 0.94490296 0.9629056 0.9683429
0.9965527 1.0403289 1.0365041 1.0287981 0.9795566 0.886759 1.0127558 0.98759925
0.8824429 1.0299045 0.94077426 0.99545926 0.9262329 0.9719424 1.0094217 1.0591018
00000000: 1c41 863f 270a 803f e52a 813f 9aa4 6f3f
00000010: b04c 823f 3f34 803f dc9a 843f 8726 863f
00000020: 55e4 853f 77b0 7e3f c9e3 623f 4baa 813f
00000030: 6218 813f 29e5 713f fb80 763f 52e5 773f
00000040: 141e 7f3f 7f29 853f 2bac 843f a8af 833f
00000050: 39c4 7a3f a302 633f fba1 813f 4ed3 7c3f
00000060: c7e7 613f e9d3 833f 95d6 703f 6bd6 7e3f
00000070: 991d 6d3f 38d1 783f bb34 813f a690 873f

conv2.1.bias f4 [32]
-0.04666602 -0.012752232 0.11463722 -0.09484464 0.06595647 -0.08501109 -0.070513204 0.014390355
-0.11094441 -0.02223341 -0.12297534 -0.111339554 -0.013829334 0.034738347 -0.11988374 0.05597363
-0.05201229 0.12445283 -0.038864657 -0.11525004 0.013997214 -0.074865274 -0.05888544 -0.015443781
-0.10313754 -0.083336346 -0.11491173 -0.20052959 0.074318275 -0.09610292 -0.0030867886 -0.085264556
00000000: de24 3fbd bdee 50bc ebc6 ea3d e83d c2bd
00000010: 3014 873d 4b1a aebd 3a69 90bd 86c5 6b3c
00000020: d336 e3bd d722 b6bc 7fda fbbd fe05 e4bd
00000030: 6e94 62bc cc49 0e3d 9b85 f5bd 9b44 653d
00000040: d70a 55bd 20e1 fe3d 8c30 1fbd 3708 ecbd
00000050: 9254 653c f752 99bd dc31 71bd ea07 7dbc
00000060: c639 d3bd 3fac aabd d756 ebbd a157 4dbe
00000070: 2e34 983d 9cd1 c4bd b84b 4abb 2f9f aebd

conv2.1.running_mean f4 [32]
-1.6718591 -0.0149612725 0.016178636 1.1009591 0.18585205 0.072684966 -0.5861553 0.06043248
0.7409277 -0.06283069 0.62449986 -0.10607607 -0.81244373 0.47861075 0.3961424 -0.15371649
-0.22123396 -0.8981304 0.37995857 -0.0055144476 -0.0033503894 0.13584602 0.9931138 -0.15562178
1.186329 -0.030129602 0.53975946 0.7898633 -0.12528858 -0.33880585 -0.014427344 0.4916792
00000000: 7bff d5bf 2020 75bc 0f89 843c 3aec 8c3f
00000010: 0050 3e3e dbdb 943d 460e 16bf 0c88 773d
00000020: 70ad 3d3f 60ad 80bd 39df 1f3f 693e d9bd
00000030: 50fc 4fbf 780c f53e 2dd3 ca3e db67 1dbe
00000040: 288b 62be e0eb 65bf ee89 c23e 8ab2 b4bb
00000050: 3592 5bbb 381b 0b3e b53c 7e3f 515b 1fbe
00000060: a1d9 973f 5bd2 f6bc ad2d 0a3f 7b34 4a3f
00000070: a64b 00be f677 adbe ab60 6cbc 60bd fb3e

conv2.1.running_var f4 [32]
2.666543 0.19127439 0.20478128 1.3672084 0.21997923 0.39312077 0.6959954 0.46198267
1.0594707 0.5910441 1.7235878 0.9218884 0.52892137 0.55037165 0.6519679 0.31412128
0.22894937 0.70410746 0.28016943 1.0627652 0.30581525 0.6167431 0.72095686 0.39663723
3.677201 0.35728925 1.0314119 0.4476732 0.20749076 0.8797844 0.8517635 0.63091236
00000000: a4a8 2a40 6fdd 433e 2fb2 513e af00 af3f
00000010: 3c42 613e 2047 c93e c12c 323f fe88 ec3e
00000020: bc9c 873f ab4e 173f 869e dc3f e100 6c3f
00000030: 6467 073f 28e5 0c3f 5ee7 263f 81d4 a03e
00000040: b471 6a3e 6340 343f 5e72 8f3e b108 883f
00000050: d193 9c3e e0e2 1d3f a190 383f 0914 cb3e
00000060: 4357 6b40 9eee b63e 4e05 843f 6c35 e53e
00000070: 7578 543e 8d39 613f 2c0d 5a3f 7983 213f

conv3.0.weight f4 [64, 32, 3, 3]
-0.04925907 0.0036369152 0.098721445 -0.045499362 -9.312318e-05 -0.030189235 0.022140669 -0.04471546
0.043464746 -0.032254502 -0.07022437 0.03402374 -0.14657253 -0.01670847 -0.04240886 -0.07455401
-0.020336319 -0.0033052613 0.022307595 0.09687884 -0.032365255 0.026043085 0.0016981949 -0.08228488
-0.07865637 -0.042324714 0.09537956 -0.1926434 -0.020688273 -0.09907078 -0.047915537 -0.02021308
-0.008611845 0.055261932 -0.028370438 0.117566265 0.005440806 -0.020158337 -0.08428719 -0.071026914
-0.10995079 0.04277347 -0.015046847 0.03722443 0.022407247 -0.11658167 -0.1667201 0.1340747
-0.16053261 -0.080994435 -0.018081626 0.052236762 -0.0046538482 -0.067239255 0.06771282 0.03763471
-0.062669195 -0.049544033 0.04657517 -0.12841342 -0.118558705 -0.057068065 0.08344019 -0.07548547
-0.11619271 -0.019656237 -0.045196816 0.110753715 -0.07174988 0.033983964 -0.023610419 -0.01626399
0.111928366 -0.008792847 0.11592437 -0.007185748 0.13088685 0.0230807 0.04132569 -0.042530958
-0.002217127 -0.089313164 -0.041216873 0.00047901212 -0.1625305 0.038635485 0.043061156 -0.041033465
-0.020020824 -0.069738664 0.06404419 -0.07090443 -0.019889463 -0.10774235 0.02792023 0.006314368
0.0339778 -0.011856613 0.112753004 -0.067749426 0.06418246 0.030848319 0.019527577 -0.067963384
-0.06749015 0.04968796 -0.09543232 0.029081514 0.048993982 -0.022221368 -0.05898014 0.119382694
0.041638304 -0.03709001 0.065212816 -0.06364021 0.06940834 -0.12770449 -0.045089267 -0.11001727
0.013345654 -0.03761503 0.011228275 -0.036839277 0.02546884 0.03619304 -0.15196973 0.02745439
0.15522152 -0.09103638 0.13621458 -0.07082704 -0.06149241 0.056963347 -0.0031989238 0.13238047
0.04283139 -0.044255983 -0.075006224 -0.02432586 -0.036315944 0.07374333 0.082590744 0.04176432
-0.046276037 -0.05538233 0.019357396 -0.06550645 -0.011901116 -0.112013094 -0.024375658 -0.036344696
-0.029499074 -0.08590761 0.108772345 -0.04667616 0.008854812 0.048024457 0.014373221 -0.04904361
0.0138834575 -0.12241466 -0.11112585 -0.029928926 -0.07633562 -0.030152554 -0.04078544 -0.13421951
-0.09257522 -0.038166504 -0.115980364 0.006554396 -0.048626352 0.047605265 -0.033988126 -0.05401912
-0.0021551324 -0.045448307 -0.09820725 0.00090153405 0.011186475 -0.1365428 -0.1237576 -0.07258601
0.022424025 0.059418052 0.087329835 0.022075556 0.15802716 0.058272883 -0.09108495 -0.094582014
-0.041792303 -0.00980584 -0.014601215 -0.008884485 0.04691691 0.07625358 -0.24892041 -0.1992334
-0.0837558 -0.15588325 -0.10681786 -0.13968453 -0.1660612 0.03875594 0.026883695 -0.062875375
-0.049266927 0.027321849 0.110260345 0.018395834 0.07623587 0.088027425 -0.07120377 -0.081176
-0.17428501 0.011836596 0.13545133 -0.09738171 -0.07299532 0.01883964 0.037193097 -0.04804357
-0.043810964 -0.14833413 -0.102692135 -0.09895529 -0.06428608 -0.0067905146 -0.06589427 -0.09665799
0.020045469 -0.09856087 -0.011215007 -0.06387288 -0.03744243 0.044998445 -0.032487452 -0.04232838
-0.0962844 -0.15310614 -0.17079033 -0.0023535297 -0.009105191 0.002493198 -0.04942024 -0.076651484
0.060301047 -0.05479525 0.09857451 0.11894098 0.026212486 0.03116437 -0.030674292 -0.08781058
00000000: e1c3 49bd 5059 6e3b 782e ca3d 8a5d 3abd
00000010: 204b c3b8 6a4f f7bc 5960 b53c 8f27 37bd
00000020: 1708 323d 4c1d 04bd cbd1 8fbd 7a5c 0b3d
00000030: 1c17 16be 34e0 88bc eab4 2dbd c6af 98bd
00000040: 5a98 a6bc 159d 58bb 6bbe b63c 6a68 c63d
00000050: 6e91 04bd 4f58 d53c f795 de3a fa84 a8bd
00000060: 9716 a1bd ae5c 2dbd 5c56 c33d 5044 45be
00000070: 747a a9bc 9fe5 cabd 1543 44bd e795 a5bc
00000080: b218 0dbc 565a 623d 1f69 e8bc 95c6 f03d
00000090: ca48 b23b 1923 a5bc c39e acbd 8f76 91bd
000000a0: e12d e1bd 3c33 2f3d 0d87 76bc a578 183d
000000b0: 678f b73c 5fc2 eebd adb8 2abe e14a 093e
000000c0: a962 24be 69e0 a5bd eb1f 94bc 37f6 553d
000000d0: 4f7f 98bb bcb4 89bd 05ad 8a3d db26 1a3d
000000e0: b558 80bd afee 4abd 9bc5 3e3d cf7e 03be
000000f0: e8ce f2bd 34c0 69bd b1e2 aa3d 2098 9abd
00000100: 72f6 edbd 1e06 a1bc 4c20 39bd d8d2 e23d
00000110: 9af1 92bd c532 0b3d a36a c1bc 0f3c 85bc
00000120: b33a e53d e00f 10bc c269 ed3d 6c76 ebbb
00000130: 3407 063e bc13 bd3c 2045 293d f134 2ebd
00000140: 384d 11bb d2e9 b6bd 06d3 28bd eb23 fb39
00000150: 656e 26be 3e40 1e3d e560 303d b512 28bd
00000160: b602 a4bc 25d3 8ebd 9a29 833d 5736 91bd
00000170: 3aef a2bc 05a8 dcbd f7b8 e43c c2e8 ce3b
00000180: 4e2c 0b3d 3d42 42bc 0ceb e63d 36c0 8abd
00000190: 1872 833d 9db5 fc3c 4cf8 9f3c 6330 8bbd
000001a0: 4738 8abd 9a85 4b3d 0572 c3bd 5b3c ee3c
000001b0: eaad 483d 9609 b6bc 2995 71bd ea7e f43d
000001c0: ed8c 2a3d b2eb 17bd 4c8e 853d cc55 82bd
000001d0: f625 8e3d f7c4 02be 86af 38bd bc50 e1bd
000001e0: bba7 5a3c 3812 1abd ccf6 373c c8e4 16bd
000001f0: 07a4 d03c 273f 143d f49d 1bbe 07e8 e03c
00000200: 64f2 1e3e 4871 babd d67b 0b3e c40d 91bd
00000210: 77df 7bbd 6652 693d 09a5 51bb bf8e 073e
00000220: f86f 2f3d c345 35bd dd9c 99bd 0747 c7bc
00000230: 07c0 14bd be06 973d 5625 a93d 1011 2b3d
00000240: f18b 3dbd 95d8 62bd 6793 9e3c 3f28 86bd
00000250: e6fc 42bc 1f67 e5bd 76af c7bc 2dde 14bd
00000260: 0ba8 f1bc 54f0 afbd 09c4 de3d 802f 3fbd
00000270: c613 113c 4bb5 443d a97d 6b3c f4e1 48bd
00000280: 7177 633c 8ab4 fabd f395 e3bd 822d f5bc
00000290: d955 9cbd 7d02 f7bc a20e 27bd d770 09be
000002a0: 1498 bdbd 7b54 1cbd 1d87 edbd 42c6 d63b
000002b0: 6d2c 47bd bdfd 423d 2237 0bbd 2743 5dbd
000002c0: 1f3d 0dbb 0128 3abd e220 c9bd ed54 6c3a
000002d0: 7a47 373c e0d1 0bbe a074 fdbd f9a7 94bd
000002e0: 97b2 b73c 5860 733d fcd9 b23d ccd7 b43c
000002f0: dfd1 213e 8caf 6e3d bf8a babd 37b4 c1bd
00000300: 682e 2bbd ada8 20bc ef39 6fbc 3b90 11bc
00000310: f22b 403d d62a 9c3d fee4 7ebe d703 4cbe
00000320: 2988 abbd dc9f 1fbe 52c3 dabd 7609 0fbe
00000330: f20b 2abe 8cbe 1e3d 323b dc3c cec4 80bd
00000340: 1ecc 49bd 12d2 df3c 2dd0 e13d dcb2 963c
00000350: 8d21 9c3d b947 b43d 48d3 91bd 9a3f a6bd
00000360: c577 32be 48ee 413c c1b3 0a3e 1070 c7bd
00000370: 927e 95bd 9755 9a3c ca57 183d 56c9 44bd
00000380: 2073 33bd e7e4 17be 4150 d2bd 12a9 cabd
00000390: 6ca8 83bd f782 debb 93f3 86bd a0f4 c5bd
000003a0: 6536 a43c 48da c9bd 26bf 37bc c9cf 82bd
000003b0: 3c5d 19bd 4a50 383d 9011 05bd 8660 2dbd
000003c0: c130 c5bd dbc7 1cbe a9e3 2ebe ad3d 1abb
000003d0: f02d 15bc ec64 233b e16c 4abd 74fb 9cbd
000003e0: 3bfe 763d fc70 60bd 6fe1 c93d 5497 f33d
000003f0: 91bb d63c 6c4c ff3c a748 fbbc 09d6 b3bd

conv3.0.bias f4 [64]
0.039909765 0.024833646 0.04979515 0.009450213 -0.016337946 -0.023610938 -0.012129051 0.023924526
-0.03865042 -0.02919328 0.0082997065 0.042652186 0.006610737 -0.0050464133 0.0028460387 -0.033670183
-0.06413286 0.016748626 0.022177996 -0.021298284 0.01812629 0.0037732332 0.029866919 -0.033234652
-0.011359446 -0.030037567 -0.010074824 0.0048248502 0.020155229 0.009278727 -0.054039676 0.03968481
-0.0034438712 -0.0033036217 0.010027543 0.017467339 0.013191775 -0.013464765 -0.051308297 0.008114759
0.010314115 -0.097880945 0.011544353 -0.025672147 -0.03736065 0.0063371886 -0.030649994 0.004395794
0.00067979697 -0.029612033 -0.007694246 -0.012323069 -0.014988331 -0.017155776 -0.036314238 0.011638837
-0.02261992 0.0759471 0.010191461 -0.0033872605 0.0045847315 -0.032122564 0.015183008 -0.022104919
00000000: 6c78 233d ee6f cb3c 00f6 4b3d 11d5 1a3c
00000010: 28d7 85bc ba6b c1bc edb8 46bc 5efd c33c
00000020: e74f 1ebd bf26 efbc 7efb 073c 0fb4 2e3d
00000030: e29e d83b 625c a5bb 9b84 3a3b bfe9 09bd
00000040: 1758 83bd 6a34 893c a1ae b53c bd79 aebc
00000050: 967d 943c 5948 773b 78ab f43c 0f21 08bd
00000060: f81c 3abc 5811 f6bc e010 25bc c719 9e3b
00000070: 941c a53c cd05 183c b558 5dbd 8a8c 223d
00000080: 92b2 61bb 9381 58bb 904a 243c aa17 8f3c
00000090: 5122 583c 519b 5cbc a628 52bd c4f3 043c
000000a0: 89fc 283c ce75 c8bd 8724 3d3c 654e d2bc
000000b0: 7b07 19bd 31a8 cf3b b215 fbbc 980a 903b
000000c0: 6734 323a ef94 f2bc 0320 fcbb b3e6 49bc
000000d0: 9e91 75bc 458a 8cbc 3dbe 14bd d2b0 3e3c
000000e0: 694d b9bc 278a 9b3d 16fa 263c cdfc 5dbb
000000f0: 843b 963b f392 03bd 27c2 783c 6015 b5bc

conv3.1.weight f4 [64]
0.91318256 0.8033889 0.9802678 0.9088738 0.77889013 0.8879628 0.86070764 0.9366461
0.8382386 0.85391015 0.8988364 0.8708676 0.8731286 0.8436445 0.86674607 0.8716733
0.8968359 0.91329724 0.8145116 0.909002 0.891694 0.832351 0.9554409 0.91617936
0.9455165 0.86052203 0.92373717 0.9459555 0.9300251 0.84137905 0.9049794 0.8968111
0.8369773 0.8727866 0.83258057 0.90101403 0.75715804 0.88391733 0.9677008 0.91444546
0.95852053 0.94559073 0.8169574 0.8906965 0.8382619 0.9544066 0.90615284 0.85169494
0.91917175 0.8319555 0.8947976 0.9539349 0.905519 0.8942573 0.92412776 0.9024207
0.9486802 0.9284015 0.913108 0.8454363 0.83384943 0.8191992 0.8302412 0.8412524
00000000: 55c6 693f e5aa 4d3f d5f2 7a3f f4ab 683f
00000010: 5865 473f 8851 633f 5657 5c3f 0ac8 6f3f
00000020: ce96 563f db99 5a3f 241a 663f 2ef1 5e3f
00000030: 5b85 5f3f 16f9 573f 12e3 5d3f fb25 5f3f
00000040: 0a97 653f d9cd 693f d583 503f 5bb4 683f
00000050: 0f46 643f f514 553f c697 743f bb8a 6a3f
00000060: 5f0d 723f 2c4b 5c3f 0a7a 6c3f 242a 723f
00000070: 2016 6e3f 9e64 573f bbac 673f 6a95 653f
00000080: 2544 563f f16e 5f3f 0024 553f dba8 663f
00000090: 1cd5 413f 6848 623f 3dbb 773f 1919 6a3f
000000a0: 9a61 753f 3c12 723f 1f24 513f b004 643f
000000b0: 5598 563f fe53 743f a2f9 673f ae08 5a3f
000000c0: d74e 6b3f 09fb 543f 7511 653f 1435 743f
000000d0: 18d0 673f 0cee 643f a393 6c3f 0b05 673f
000000e0: b5dc 723f b9ab 6d3f 72c1 693f 836e 583f
000000f0: 2877 553f 0ab7 513f b08a 543f 515c 573f

conv3.1.bias f4 [64]
-0.061630998 -0.07898051 -0.041507117 -0.12330857 -0.05045432 -0.10019731 0.012339819 -0.12725227
-0.0081935 -0.14944509 -0.104399666 -0.14483872 -0.045865357 -0.05126513 -0.114764154 -0.20024355
-0.102307506 -0.061778 0.04287105 0.038759425 -0.008659896 -0.09668377 -0.047729008 -0.092784464
-0.08347823 -0.17125611 -0.14070305 -0.04366907 -0.05100591 -0.20838766 -0.091288194 -0.10888329
-0.11685832 -0.12324751 -0.10039551 -0.10944595 -0.026087616 -0.10341338 -0.11160189 0.06618327
-0.052510396 -0.082750484 -0.049598686 -0.18632421 -0.0024798033 -0.13801946 -0.12119914 -0.11652416
-0.122196436 -0.061149802 -0.112226166 -0.026766865 -0.15723357 -0.07408506 -0.0712869 -0.13769478
0.046890575 -0.036575273 -0.09717826 -0.11317821 -0.092355944 -0.08227628 -0.090561524 -0.19654194
00000000: c970 7cbd 89c0 a1bd 5e03 2abd 3489 fcbd
00000010: 30a9 4ebd 3f34 cdbd f42c 4a3c 6b4e 02be
00000020: 083e 06bc 2208 19be 7ecf d5bd 9a50 14be
00000030: 50dd 3bbd 63fb 51bd 7809 ebbd a50c 4dbe
00000040: 9986 d1bd ee0a 7dbd 8e99 2f3d 34c2 1e3d
00000050: 3de2 0dbc 2402 c6bd 7e7f 43bd c805 bebd
00000060: a2f6 aabd c35d 2fbe 7614 10be 57de 32bd
00000070: 93eb 50bd 9363 55be 4ef5 babd 34fe debd
00000080: 6a53 efbd 3169 fcbd 299c cdbd 3325 e0bd
00000090: b2b5 d5bc 65ca d3bd 888f e4bd 188b 873d
000000a0: 2415 57bd 1679 a9bd fe27 4bbd c6cb 3ebe
000000b0: 3284 22bb f954 0dbe 4137 f8bd 38a4 eebd
000000c0: 2042 fabd 3778 7abd d5d6 e5bd 2f46 dbbc
000000d0: d601 21be e8b9 97bd defe 91bd dcff 0cbe
000000e0: 5510 403d f4cf 15bd 6505 c7bd fac9 e7bd
000000f0: 1d25 bdbd 7780 a8bd 5278 b9bd 4a42 49be

conv3.1.running_mean f4 [64]
-2.240059 -1.3198087 0.9751577 -0.45447564 0.6683149 -0.91146463 2.4694018 0.11006261
1.8479068 -1.2767044 -1.0425961 -0.68324506 1.3382046 1.1310787 -0.74096394 -2.3772242
-1.6107911 1.6862506 1.0151854 -0.18502621 0.8391989 -0.053866196 1.0997679 -0.7138647
-1.9645121 -1.2293011 -0.9485605 -1.7736084 -1.8654883 -0.5222131 -1.394238 -0.49184108
-0.9248354 -0.4246441 0.1758517 -0.7897042 0.36999103 0.8535183 -1.0968472 0.86292094
-1.9525906 0.25329655 1.4611086 -2.372065 0.14662503 -1.6994658 0.14137235 -0.36624712
-2.1000233 0.7632627 -1.8517638 1.1258339 -2.0888746 2.2794173 -2.2160559 -1.590132
1.4151642 0.8054075 -1.1929398 2.0283027 -0.86007535 0.6624841 -1.3538516 -1.0794444
00000000: 205d 0fc0 7eef a8bf efa3 793f 08b1 e8be
00000010: af16 2b3f bf55 69bf ae0a 1e40 8168 e13d
00000020: 3688 ec3f 0d6b a3bf ca73 85bf 26e9 2ebf
00000030: 4a4a ab3f 30c7 903f d0af 3dbf 7124 18c0
00000040: 672e cebf 0fd7 d73f 98f1 813f 8377 3dbe
00000050: bdd5 563f cda2 5cbd 32c5 8c3f d6bf 36bf
00000060: 2275 fbbf bd59 9dbf dcd4 72bf 9a05 e3bf
00000070: 52c8 eebf c2af 05bf 6476 b2bf 98d2 fbbe
00000080: 03c2 6cbf f46a d9be 7812 343e 0e2a 4abf
00000090: 776f bd3e 2d80 5a3f 7d65 8cbf 63e8 5c3f
000000a0: 7dee f9bf 16b0 813e 9b05 bb3f eacf 17c0
000000b0: df24 163e 1888 d9bf eac3 103e be84 bbbe
000000c0: c866 06c0 2f65 433f 9906 edbf 531b 903f
000000d0: 1fb0 05c0 f9e1 1140 dcd3 0dc0 7289 cbbf
000000e0: 1a24 b53f 302f 4e3f 40b2 98bf b6cf 0140
000000f0: e62d 5cbf 8f98 293f 024b adbf 3c2b 8abf

conv3.1.running_var f4 [64]
8.169161 2.7573884 1.4045819 1.8843738 2.410112 1.2740539 4.146128 1.0979744
2.55353 2.052024 3.4106536 2.9283226 3.7371686 5.361769 3.5776513 3.3960826
4.9294605 3.2821877 2.8031118 2.8163419 4.3231006 3.292295 2.5598123 3.233206
4.867096 2.1281924 1.288765 3.7031963 4.10687 2.2020493 2.7610447 2.2226212
2.250455 2.2589054 3.0835955 2.5749054 3.126629 2.364424 1.963993 1.4344506
2.4770691 0.97028375 5.2217355 4.2342844 1.1644819 4.879332 2.4590414 2.9295175
2.3624382 3.6496193 4.6264315 1.6806055 4.119371 8.120553 4.1122847 4.460879
1.6326301 3.0304756 6.11735 5.6549635 2.2725098 2.4143205 3.6004877 2.2507522
00000000: e2b4 0241 0d79 3040 57c9 b33f 2933 f13f
00000010: 463f 1a40 3314 a33f 15ad 8440 6d8a 8c3f
00000020: 096d 2340 5c54 0340 2648 5a40 a369 3b40
00000030: c52d 6f40 9d93 ab40 3df8 6440 6b59 5940
00000040: 24be 9d40 5d0f 5240 2f66 3340 f23e 3440
00000050: d756 8a40 f6b4 5240 f7d3 2340 d9ec 4e40
00000060: 40bf 9b40 4e34 0840 40f6 a43f 2b01 6d40
00000070: 7b6b 8340 60ee 0c40 f5b4 3040 6d3f 0e40
00000080: 7407 1040 e891 1040 a159 4540 40cb 2440
00000090: b11a 4840 b952 1740 1f64 fb3f 149c b73f
000000a0: 4d88 1e40 8464 783f 7518 a740 427f 8740
000000b0: be0d 953f 7d23 9c40 ef60 1d40 377d 3b40
000000c0: 3032 1740 5d93 6940 ba0b 9440 151e d73f
000000d0: e3d1 8340 c9ed 0141 d697 8340 85bf 8e40
000000e0: 06fa d03f 50f3 4140 55c1 c340 76f5 b440
000000f0: cd70 1140 3a84 1a40 646e 6640 530c 1040

fc1.0.weight f4 [128, 1024]
-0.04850001 -0.02178484 -0.30162576 -0.023570063 -0.16447486 0.023272311 -0.07594016 0.108164035
-0.01401275 -0.20943207 0.07194755 -0.0095908055 -0.17134328 -0.096790984 -0.10917348 0.071448326
-0.0032088608 0.16806541 -0.04131504 0.073813975 0.26554975 -0.10823777 -0.07265399 0.05145705
-0.021604823 0.012317752 0.049973484 0.02249168 -0.14305805 0.051879045 -0.15906143 0.016606575
-0.033711895 -0.11888897 0.010422971 0.06712375 0.20649484 0.030391319 0.21328741 -0.07917795
0.0005777182 -0.12913683 0.03377105 0.0033223995 -0.054327883 0.15458445 -0.08588104 -0.10204535
-0.12867586 0.036449596 -0.019744022 0.01347172 -0.16207457 -0.0413694 0.11991462 0.1512269
-0.018346727 -0.00038410164 0.099338226 0.046670813 -0.07367364 -0.112982206 -0.01695488 -0.26733375
-0.016329082 0.05062672 -0.12330998 -0.004592774 -0.019728528 0.04735438 -0.03307532 -0.045472763
-0.03014164 -0.18886031 -0.035784226 -0.15203927 0.12194318 0.0021581096 -0.06743519 0.08523108
0.14857352 -0.26381436 -0.15754208 -0.033408094 -0.05616943 -0.058736812 0.10382441 0.11142422
-0.17356898 0.061474092 0.051228646 0.14412025 0.1559189 -0.07138719 -0.029359821 -0.10050216
-0.112289056 0.0069570513 -0.03240981 -0.17547542 0.029349133 0.15060745 0.09748436 0.009183337
-0.08474453 0.0067742746 0.048891097 -0.047775734 -0.2533157 -0.10408982 -0.16290201 -0.09013628
-0.13197275 0.03973639 -0.31797153 -0.11039547 0.018856741 -0.17401107 -0.30666628 -0.07751169
-0.105716094 0.009112028 -0.04318418 -0.13010246 0.026300155 -0.23979391 0.07290441 0.1209447
-0.13821512 0.05964705 -0.010694355 0.13068886 -0.19585985 -0.10585355 -0.14202973 -0.15027836
-0.10063927 -0.042667314 0.017418373 -0.042705778 -0.14977022 0.16950326 -0.19900647 -0.09048363
0.041939575 -0.094043896 0.042559844 -0.053785566 0.048114166 -0.00991874 0.019005751 -0.016140291
0.12642622 -0.24468927 -0.03530156 0.11814548 0.006961554 0.10905025 -0.0626629 -0.06611357
0.0599529 -0.03408399 0.071319304 -0.117573276 0.050888356 -0.16234235 -0.06473954 0.012004348
-0.023956632 0.21044557 0.12671034 0.14332701 -0.10683015 -0.080134004 -0.12509067 -0.100791685
-0.11182999 0.15658563 -0.038239583 0.0637654 -0.03812946 -0.13068095 0.10008568 -0.0888056
-0.05692853 -0.05164818 -0.17599957 0.042027023 0.086398646 -0.022623055 -0.1856542 -0.04593858
-0.1415425 -0.040946342 0.002460498 0.12486407 0.16710722 0.045854013 -0.15202874 -0.14254642
0.0051431996 -0.09381294 -0.18613276 0.13760607 -0.042033695 -0.22447014 0.09471954 0.03158846
0.005248201 -0.07882272 -0.1901675 -0.120127305 -0.13217677 0.14202291 0.009807111 0.18274885
0.05969925 -0.06111334 0.22790685 0.07997941 -0.025229853 0.11800543 -0.027384814 -0.1717838
-0.12905364 0.07780562 -0.037159637 -0.18130726 -0.07987067 -0.027860861 -0.08706045 -0.051177084
-0.015678529 -0.31975782 -0.1810068 -0.2747529 -0.14766964 -0.21470368 0.08797944 0.14658435
-0.0081765 -0.06809729 -0.21098731 -0.18936782 -0.025921518 0.076211244 0.16261488 0.02498631
-0.065002665 0.059037905 0.109925635 0.14892994 0.074037105 0.03645949 0.15514131 0.09500301
00000000: f2a7 46bd 1f76 b2bc b16e 9abe 0116 c1bc
00000010: 196c 28be 93a5 be3c 8486 9bbd 1b85 dd3d
00000020: bc95 65bc 5c75 56be 3d59 933d c122 1dbc
00000030: 9d74 2fbe 5a3a c6bd 5896 dfbd 8053 923d
00000040: c04b 52bb 5719 2c3e f639 29bd c82b 973d
00000050: 23f6 873e c4ab ddbd 9dcb 94bd a1c4 523d
00000060: 99fc b0bc 66d0 493c ffb0 4c3d 7940 b83c
00000070: cf7d 12be 1f7f 543d 00e1 22be 830a 883c
00000080: 7c15 0abd 0f7c f3bd 1cc5 2a3c 2d78 893d
00000090: 6273 533e 37f7 f83c 0468 5a3e 0d28 a2bd
000000a0: 0372 173a 723c 04be 8353 0a3d 9dbc 593b
000000b0: ea86 5ebd 634b 1e3e 66e2 afbd 27fd d0bd
000000c0: 9bc3 03be 2c4c 153d 37be a1bc 7db8 5c3c
000000d0: e0f6 25be f672 29bd cc95 f53d 39db 1a3e
000000e0: e04b 96bc 4061 c9b9 d771 cb3d e529 3f3d
000000f0: 35e2 96bd 3763 e7bd f6e4 8abc f8df 88be
00000100: 91c4 85bc f75d 4f3d f189 fcbd fb7e 96bb
00000110: b99d a1bc abf6 413d fd79 07bd a641 3abd
00000120: 9aeb f6bc 9964 41be 7b92 12bd 2fb0 1bbe
00000130: 59bd f93d 126f 0d3b 761b 8abd a28d ae3d
00000140: a823 183e ad12 87be b652 21be edd6 08bd
00000150: eb11 66bd 0396 70bd e4a1 d43d 6232 e43d
00000160: 11bc 31be 42cc 7b3d 21d5 513d 4294 133e
00000170: 34a9 1f3e 7233 92bd 0284 f0bc 14d4 cdbd
00000180: cef7 e5bd faf7 e33b 26c0 04bd d4af 33be
00000190: 986d f03c d738 1a3e e1a5 c73d b575 163c
000001a0: 8a8e adbd bcfa dd3b 0842 483d 7db0 43bd
000001b0: 98b2 81be 0b2d d5bd c9cf 26be 5f99 b8bd
000001c0: dd23 07be a0c2 223d 2acd a2be 0517 e2bd
000001d0: 7479 9a3c f52f 32be 5d03 9dbe 73be 9ebd
000001e0: ae81 d8bd 9e4a 153c e5e1 30bd 9439 05be
000001f0: 6c73 d73c 898c 75be e84e 953d dbb1 f73d
00000200: 4488 0dbe 7750 743d 6037 2fbc 4dd3 053e
00000210: 7c8f 48be bfc9 d8bd 3e70 11be 92e2 19be
00000220: f61b cebd ecc3 2ebd fab0 8e3c 41ec 2ebd
00000230: 5d5d 19be 4392 2d3e 5ac8 4bbe 7b4f b9bd
00000240: d5c8 2b3d 169a c0bd 3b53 2e3d 414e 5cbd
00000250: 5c13 453d 3682 22bc f3b1 9b3c a538 84bc
00000260: e075 013e d38f 7abe 5e98 10bd 42f6 f13d
00000270: bf1d e43b bd55 df3d 6855 80bd 8d66 87bd
00000280: 2c91 753d a79b 0bbd db0f 923d 42ca f0bd
00000290: 4f70 503d 133d 26be 2a96 84bd e3ad 443c
000002a0: b340 c4bc 0b7f 573e 5bc0 013e 51c4 123e
000002b0: c4c9 dabd 4c1d a4bd c517 00be df6b cebd
000002c0: 1f07 e5bd fc57 203e 1ca1 1cbd 6f97 823d
000002d0: a32d 1cbd 3ad1 05be b9f9 cc3d b6df b5bd
000002e0: e42d 69bd 0b8d 53bd 3b39 34be 8724 2c3d
000002f0: c6f1 b03d fc53 b9bc 221c 3ebe 182a 3cbd
00000300: 84f0 10be 5ab7 27bd 4e40 213b bcb8 ff3d
00000310: 281e 2b3e 6bd1 3b3d 6cad 1bbe b0f7 11be
00000320: 4988 a83b 0021 c0bd 9699 3ebe 9be8 0c3e
00000330: 862b 2cbd 80db 65be 51fc c13d e762 013d
00000340: 1af9 ab3b ce6d a1bd 45bb 42be 4e05 f6bd
00000350: 5959 07be 746e 113e 01ae 203c 8422 3b3e
00000360: 3387 743d fb51 7abd 6a60 693e 3fcc a33d
00000370: d6ae cebc d5ac f13d 1e56 e0bc 18e8 2fbe
00000380: a326 04be 8e58 9f3d b434 18bd 9ca8 39be
00000390: 3c93 a3bd 763c e4bc c04c b2bd 109f 51bd
000003a0: 4270 80bc 4cb7 a3be d959 39be 69ac 8cbe
000003b0: b636 17be 48db 5bbe 912e b43d 351a 163e
000003c0: baf6 05bc 9876 8bbd 0f0d 58be a3e9 41be
000003d0: 5d59 d4bc a414 9c3d 8484 263e 17b0 cc3c
000003e0: 1e20 85bd bbd1 713d b120 e13d 1781 183e
000003f0: c4a0 973d 8c56 153d 5ddd 1e3e f090 c23d

fc1.0.bias f4 [128]
-0.027038809 -0.025871018 -0.029525472 -0.041935086 -0.013398278 -0.028818732 -0.020963956 -0.020998387
-0.015936745 -0.027000051 -0.031958345 -0.024602659 -0.01925547 -0.024076793 0.02387681 0.004936151
-0.021880528 -0.025246695 -0.0064833118 0.06989825 -0.027559657 -0.019903656 -0.013990557 -0.033477228
-0.008361822 -0.041020628 -0.017958023 -0.03787587 -0.019509315 0.015200683 -0.017585082 -0.025556054
-0.021645185 -0.02982532 -0.032479104 -0.031302456 -0.019779794 -0.020209024 -0.002941099 -0.030494327
-0.023860583 -0.015160309 -0.022427937 0.055297036 -0.025598425 -0.023895657 -0.019724952 -0.03400966
-0.018944826 -0.0065694945 -0.008316145 -0.023488898 -0.019322721 -0.01883826 -0.01925436 -0.01615452
0.0521337 -0.0041929134 -0.026943175 -0.013277619 0.05414793 -0.02224345 -0.051625896 0.005625939
-0.027852768 0.018175893 -0.029102614 -0.005734813 -0.022309339 -0.035051033 -0.008321427 -0.022757115
0.029854145 -0.033886116 -0.029957315 -0.022719584 -0.021298215 -0.017825725 -0.03207877 0.005363445
0.027096286 -0.0162958 -0.01414894 -0.019324923 -0.023444071 -0.021102233 -0.01575281 -0.022872757
-0.012329346 -0.027169175 -0.016147532 0.01379213 0.01589678 -0.029841863 -0.02842794 -0.028499097
-0.020001864 -0.02405716 -0.028904554 -0.022761159 -0.023847694 0.032491002 -0.017965123 0.0068763206
-0.014377175 -0.026940314 0.034853395 -0.02653896 0.015859324 -0.01338305 -0.025571382 0.02748754
-0.020916404 -0.03243016 0.010474783 -0.026795752 -0.03903022 -0.024606204 -0.013888021 -0.00014510732
-0.031144839 0.028065747 -0.03241698 0.023960572 -0.016727068 -0.026845803 -0.020711232 -0.026886836
00000000: 7e80 ddbc 75ef d3bc 67df f1bc 20c4 2bbd
00000010: 7384 5bbc 4315 ecbc 9abc abbc cf04 acbc
00000020: c78d 82bc 362f ddbc c1e6 02bd 848b c9bc
00000030: a6bd 9dbc b23c c5bc 4d99 c33c 70bf a13b
00000040: cb3e b3bc 28d2 cebc f671 d4bb d026 8f3d
00000050: cac4 e1bc fe0c a3bc a638 65bc 6b1f 09bd
00000060: 0600 09bc 3f05 28bd b41c 93bc ba23 1bbd
00000070: 00d2 9fbc 490c 793c 970e 90bc ee5a d1bc
00000080: 3e51 b1bc 3b54 f4bc cf08 05bd 0137 00bd
00000090: 3c09 a2bc 658d a5bc 74bf 40bb 3dcf f9bc
000000a0: 4577 c3bc f262 78bc cbba b7bc 257f 623d
000000b0: cab3 d1bc d3c0 c3bc 3996 a1bc b74d 0bbd
000000c0: 2e32 9bbc ea44 d7bb 7140 08bc ca6b c0bc
000000d0: af4a 9ebc b252 9abc 52bb 9dbc 7c56 84bc
000000e0: 268a 553d b564 89bb efb7 dcbc 5f8a 59bc
000000f0: 38ca 5d3d e537 b6bc ad75 53bd cc59 b83b
00000100: 7d2b e4bc 9ce5 943c 9b68 eebc 19eb bbbb
00000110: 13c2 b6bc ac91 0fbd 9856 08bc 216d babc
00000120: ae90 f43c 2bcc 0abd 0b69 f5bc 6c1e babc
00000130: 9879 aebc 4107 92bc 0765 03bd d6bf af3b
00000140: 08f9 dd3c c57e 85bc f5d0 67bc 4d4f 9ebc
00000150: c80d c0bc 97de acbc 090c 81bc a65f bbbc
00000160: 0601 4abc e491 debc d447 84bc 63f8 613c
00000170: f739 823c ec76 f4bc b6e1 e8bc f076 e9bc
00000180: f3da a3bc 8513 c5bc 3ec9 ecbc 9c75 babc
00000190: 3d5c c3bc 4915 053d 982b 93bc c252 e13b
000001a0: 3e8e 6bbc efb1 dcbc 6fc2 0e3d 3c68 d9bc
000001b0: 6aeb 813c 9544 5bbc 137b d1bc 8d2d e13c
000001c0: e158 abbc 7dd5 04bd 6d9e 2b3c c482 dbbc
000001d0: 27de 1fbd f392 c9bc 958a 63bc f327 18b9
000001e0: 7623 ffbc 23ea e53c abc7 04bd f648 c43c
000001f0: 3407 89bc bbeb dbbc 9aaa a9bc c841 dcbc

fc2.weight f4 [16, 128]
-0.3705972 0.503135 -0.50368094 -0.09949744 -0.11887024 -3.6834503e-05 0.11448827 -0.29535484
-0.29747832 -0.112961546 0.25797495 -0.46826297 -0.24810228 -0.42857784 0.0037426197 0.058154445
0.66667706 -0.47403377 -0.05427875 0.28104478 -0.036083505 -1.0159708 0.0907122 -0.06281577
-0.62610245 -0.3086487 0.4109946 -0.11694644 -0.45837727 0.21322069 -0.47310957 -0.033817038
-0.5307228 0.23387448 -0.4741805 -0.1012237 0.3693839 -0.037571646 0.33232927 0.015812976
-0.55792016 -0.10763381 0.14612764 0.15224038 -0.5935537 0.6832872 -0.519967 -0.28740734
0.42800543 0.3737414 -0.5147317 0.09063782 -0.47316298 0.31917718 -0.12980747 0.29705715
0.5284352 -0.9123623 -0.34098816 -0.29802197 0.07378409 -0.28371564 -0.61063766 0.07056864
-0.06447958 0.26507404 -0.28785193 0.39184004 0.27729565 0.14220895 -0.81657314 -0.35920408
0.63138324 -0.5285972 -0.46059412 0.2746542 -0.45841497 -0.07529656 0.32863164 0.60920596
-0.055327233 -0.17471622 0.13902324 -0.36278844 -0.19175345 0.31129602 0.27095324 0.1066427
-0.44507077 0.31473756 0.117038555 0.12327352 0.22727375 0.34884536 0.08329677 0.46423417
-0.150989 -0.09652278 -0.02980486 0.5942352 0.14205742 0.15680939 -0.31870633 0.53455514
-0.8583633 0.2018538 0.13407871 -1.3842702 -0.05715411 -0.34806982 -0.039055537 0.052088715
0.24427898 0.01789348 0.27071935 -0.25385123 -0.0027284503 -0.114599995 -0.382153 0.24425717
0.23352104 0.34445968 -0.21612243 0.2656283 -0.13150118 0.7141589 0.02839958 0.08520886
-0.13233998 -0.35287684 -0.4483789 0.046285864 0.3493591 -0.35797873 -0.4830352 -0.27367005
0.14964038 -0.123051174 0.10220699 -0.18954454 0.011889777 0.44762444 0.13826247 -0.23918334
-0.63162655 -0.5278207 0.21180223 0.30603465 0.022558464 -0.4943459 0.051173557 -0.01565549
-0.46468607 -0.40285707 -0.093405046 -0.63601017 0.38309127 -0.21235463 0.07465115 -0.14848314
0.74613494 0.2531715 -0.28751495 0.07557928 -0.4382232 -0.38899282 0.3133963 0.28087202
-0.1099628 0.58557415 0.26748443 0.19192033 -0.0348362 0.030290466 -0.06896345 -0.3982967
0.7629725 0.4157758 0.20574299 0.017729774 0.0075334497 0.4205453 0.6044038 0.25814766
0.4406341 0.6939639 -0.08919393 0.024510453 0.07284121 -0.12013228 -0.84577143 0.7799334
-0.72199875 -0.05039808 0.07921053 0.7657555 0.024560338 0.6611436 -0.20056938 -0.31695914
0.03660236 -0.23815925 0.07821056 -0.57953185 -0.36807966 -0.66161186 -0.053668875 0.17285438
-0.23864877 0.08852162 -0.6921481 -0.37562746 0.23079097 -0.018403186 -0.34375128 0.8627033
-0.25121447 0.20342755 -0.15680045 0.24043566 0.27131775 -0.274511 -0.23685873 0.2990505
0.27007437 -0.5048477 0.15518534 0.006574724 -0.3587599 -0.15023516 0.45696238 0.14591849
0.15401566 -0.6212282 -0.087607086 0.48486853 0.03279459 -0.3656687 -0.3297873 0.08685741
0.03256145 -0.16994934 -0.0629755 -0.40726313 -0.6060634 -0.36429995 0.06647787 0.23761891
0.13266316 0.39876622 -0.22263408 0.06948709 -0.15924615 -0.40348864 -0.064821005 -0.48786166
00000000: ebbe bdbe 75cd 003f 3cf1 00bf 50c5 cbbd
00000010: 3e72 f3bd bf7e 1ab8 d378 ea3d c038 97be
00000020: 144f 98be 6258 e7bd 4b15 843e 2ac0 efbe
00000030: 860e 7ebe 8e6e dbbe bd46 753b 5b33 6e3d
00000040: 59ab 2a3f 8eb4 f2be 6553 5ebd 1ae5 8f3e
00000050: 4ccc 13bd 550b 82bf 51c7 b93d 8ea5 80bd
00000060: 4048 20bf 3407 9ebe e26d d23e 9d81 efbd
00000070: 6db0 eabe 8656 5a3e 6b3b f2be bc83 0abd
00000080: 73dd 07bf cb7c 6f3e c9c7 f2be 5f4e cfbd
00000090: e31f bd3e bae4 19bd 1027 aa3e 378a 813c
000000a0: dbd3 0ebf 1d6f dcbd 7ca2 153e e7e4 1b3e
000000b0: 23f3 17bf e9eb 2e3f 8f1c 05bf 0e27 93be
000000c0: 8723 db3e 085b bf3e 75c5 03bf 52a0 b93d
000000d0: 6b42 f2be 316b a33e 40ec 04be e017 983e
000000e0: 8747 073f 9390 69bf 0096 aebe 5696 98be
000000f0: 1d1c 973d 2d43 91be c052 1cbf 4b86 903d
00000100: df0d 84bd c9b7 873e 5461 93be 429f c83e
00000110: b2f9 8d3e 399f 113e f00a 51bf 99e9 b7be
00000120: 55a2 213f 2552 07bf fed2 ebbe 7a9f 8c3e
00000130: 5eb5 eabe 1535 9abd 6842 a83e ecf4 1b3f
00000140: cf9e 62bd cfe8 32be 1c5c 0e3e 68bf b9be
00000150: 045b 44be 3162 9f3e 62ba 8a3e 7d67 da3d
00000160: 51e0 e3be 4825 a13e e9b1 ef3d d476 fc3d
00000170: 73ba 683e dc9b b23e 7f97 aa3d 1ab0 ed3e
00000180: dc9c 1abe bcad c5bd 5229 f4bc cc1f 183f
00000190: 8077 113e a492 203e 7a2d a3be 9bd8 083f
000001a0: b2bd 5bbf c3b2 4e3e ee4b 093e c42f b1bf
000001b0: 6e1a 6abd 3536 b2be b3f8 1fbd fa5a 553d
000001c0: 4524 7a3e 5995 923c ba9b 8a3e caf8 81be
000001d0: cdcf 32bb 67b3 eabd 8fa9 c3be 8d1e 7a3e
000001e0: 2420 6f3e 055d b03e 334f 5dbe 6f00 883e
000001f0: 3fa8 06be 1ed3 363f 3ca6 e83c fc81 ae3d
00000200: 2284 07be 46ac b4be eb91 e5be 3f96 3d3d
00000210: 32df b23e fd48 b7be 6450 f7be 7b1e 8cbe
00000220: 543b 193e 4102 fcbd e651 d13d f717 42be
00000230: 57cd 423c 082f e53e ad94 0d3e 7aec 74be
00000240: 47b2 21bf 421f 07bf afe2 583e 93b0 9c3e
00000250: 87cc b83c e81a fdbe 5d9b 513d f13f 80bc
00000260: 55eb edbe 4843 cebe 254b bfbd 90d1 22bf
00000270: 8a24 c43e 7e73 59be b4e2 983d f70b 18be
00000280: b302 3f3f b29f 813e 2935 93be 4fc9 9a3d
00000290: cb5e e0be 112a c7be 7b75 a03e 75ce 8f3e
000002a0: 2d34 e1bd 30e8 153f b8f3 883e c386 443e
000002b0: 67b0 0ebd b623 f83c b63c 8dbd 8ced cbbe
000002c0: 2a52 433f 91e0 d43e 4aae 523e 083e 913c
000002d0: 28db f63b b751 d73e 35ba 1a3f ee2b 843e
000002e0: cb9a e13e 9ea7 313f 4fab b6bd 25ca c83c
000002f0: c62d 953d ea07 f6bd 7a84 58bf b7a9 473f
00000300: e9d4 38bf 386e 4ebd 2139 a23d 8d08 443f
00000310: c332 c93c b540 293f 0f62 4dbe 7848 a2be
00000320: 5bec 153d 05e0 73be dc2c a03d 335c 14bf
00000330: f074 bcbe 655f 29bf e5d3 5bbd bd00 313e
00000340: 5860 74be d34a b53d 9e30 31bf 3e52 c0be
00000350: 7854 6c3e 47c2 96bc 2b00 b0be 20da 5c3f
00000360: 2f9f 80be 504f 503e 4c90 20be c434 763e
00000370: 29ea 8a3e b58c 8cbe 188b 72be 261d 993e
00000380: 3047 8a3e b33d 01bf e8e8 1e3e c870 d73b
00000390: 61af b7be 3fd7 19be f9f6 e93e a86b 153e
000003a0: 48b6 1d3e d008 1fbf 586b b3bd b040 f83e
000003b0: 9f53 063d ee38 bbbe e2d9 a8be 4ce2 b13d
000003c0: 285f 053d 3307 2ebe 4df9 80bd cb84 d0be
000003d0: f926 1bbf 8685 babe 8d25 883d 5f52 733e
000003e0: dad8 073e 162b cc3e 30fa 63be 3f4f 8e3d
000003f0: 6c11 23be 1096 cebe e0c0 84bd 01c9 f9be

fc2.bias f4 [16]
-0.012772896 0.12279277 0.00975108 -0.26371583 -0.06276275 0.115552776 0.07866068 -0.19390751
-0.041501615 0.16105025 -0.016559107 -0.23163667 -0.0048136394 0.10381544 -0.0019007927 -0.17662282
00000000: 6945 51bc c77a fb3d fec2 1f3c c305 87be
00000010: c289 80bd efa6 ec3d da18 a13d b18f 46be
00000020: 99fd 29bd 5bea 243e f7a6 87bc 2a32 6dbe
00000030: bcbb 9dbb 309d d43d 0524 f9ba 9ddc 34be
